…
tecture it will use the corresponding pre-trained model as default. . But how can we train a model with fastai? To be able to train a model we need to create a model learner first. It requires our data, the model architecture (with the pre-trained model weights) and a metric to evaluate the model as input. I decided to use accuracy as the metric here, since it is a standard metric that is often used in practice. . learn = cnn_learner(data, models.resnet50, metrics=accuracy) . To display the model architecture we simply can run the following code. . learn.model . Sequential( (0): Sequential( (0): Conv2d(3, 64, kernel_size=(7, 7), stride=(2, 2), padding=(3, 3), bias=False) (1): BatchNorm2d(64, eps=1e-05, momentum=0.1, affine=True, track_running_stats=True) (2): ReLU(inplace=True) (3): MaxPool2d(kernel_size=3, stride=2, padding=1, dilation=1, ceil_mode=False) (4): Sequential( (0): Bottleneck( (conv1): Conv2d(64, 64, kernel_size=(1, 1), stride=(1, 1), bias=False) (bn1): BatchNorm2d(64, eps=1e-05, momentum=0.1, affine=True, track_running_stats=True) (conv2): Conv2d(64, 64, kernel_size=(3, 3), stride=(1, 1), padding=(1, 1), bias=False) (bn2): BatchNorm2d(64, eps=1e-05, momentum=0.1, affine=True, track_running_stats=True) (conv3): Conv2d(64, 256, kernel_size=(1, 1), stride=(1, 1), bias=False) (bn3): BatchNorm2d(256, eps=1e-05, momentum=0.1, affine=True, track_running_stats=True) (relu): ReLU(inplace=True) (downsample): Sequential( (0): Conv2d(64, 256, kernel_size=(1, 1), stride=(1, 1), bias=False) (1): BatchNorm2d(256, eps=1e-05, momentum=0.1, affine=True, track_running_stats=True) ... . When training a model we need to set several hyper-parameters. I already mentioned the batch size. However, there are a few more hyper-parameters that we can set. Fastai uses some default values for most of them which I don&#39;t want to change for now. The only hyper-parameter we do need to set besides the batch size is th
…
